FinalModel/TinyTroopers.tflite (tflite, 148352 bytes, 6 tensors)

arith.constant f4 [9, 64]
00000000: 7240 0bbd 7749 d43a b551 04bc 6b61 98bb
00000010: 907d 70be f2fc 35be d1af 343c 4e0c 89bb
00000020: 14b0 c5b8 c4e5 953b 8d0c 1cbb cd21 f63c
00000030: 4ab5 333d b5b5 75be 707d 7fbc 28d4 4fbe
00000040: b841 2bbc 5cd5 663c 1a93 4abd b1f7 69be
00000050: 59f4 43be c8f2 85bc 3a10 1e3d bbe1 333b
00000060: 751e 903b 2cec 1ebe 9e40 1d3c 4eb2 bb3d
00000070: 3cbc a5bb 9564 133c 8304 8139 700b ca3d
00000080: c7b4 0b3c 267a ca3c d403 493d 8d35 f8bc
00000090: 56ff e5b9 7bb4 aa3b b12d 4f3e 4fa1 c53d
000000a0: 21a2 8a3c 54b1 3c3e e7f9 cf3d 963a 38be
000000b0: 8ef7 ba3d 41dc cd3d 19e7 0a3e f510 1dba
000000c0: a65b 84bd 0b29 05bc 3e57 05be 6d8f 17bd
000000d0: c7c6 56bd 341c 1abc fbac 993c c300 16be
000000e0: 1ce9 453b bcc6 143e 8525 ec3d 2058 acbb
000000f0: 782e 02be 7a8b 653d a87c cd3c 2d7c 593e
00000100: 00c9 c3bd 0e76 08bd 8464 cb3b a558 e73c
00000110: 9d9d ff3c 63a5 54bd 80db 0bbd 6e22 83bc
00000120: f282 0d3c 0fd1 6cbc ee56 f1ba ca4b 623e
00000130: 512d 61bd 10c9 4f3b 8209 5fbc 3238 85bc
00000140: 584d a53c a088 f0bd f835 e63c 5934 0c3e
00000150: 0413 4dbe 213b ebbb 1d7c 1cbc 696d 80bc
00000160: b71f 873c 01c3 fa3d 2dc4 633c e7f3 80be
00000170: 62a7 f4bb 7235 7bbc 4482 f3bb 249c 25bc
00000180: cc5d 953c ea37 83bc 6a2e 1cbd b580 1fbc
00000190: affd 48bc 655e a03c 22c4 91bd 2f55 ccbd
000001a0: eb12 abba 1309 2e3d 1faa 383c d82c 9c3c
000001b0: 0775 d8bd e182 e0bd 1805 83be aa38 8cbb
000001c0: 6ed3 533d 6a72 73bd 91c5 20bc b030 963d
000001d0: 499e 943c f058 843b c064 a33c 5214 423e
000001e0: d313 7cbb 27fb 65bd da93 e1bc 9d42 f23b
000001f0: 217c cb3d 7349 ee3c 5425 a1bc 305f 0abe
00000200: f9a9 03be ab7a b9bd a633 9eb9 2d39 603c
00000210: 573a d6bb cae6 343d 0749 a3bc c0a2 cbbb
00000220: 7199 d13a abcf aabb dc9e a03c d2ed d8bb
00000230: bbfb 4abc 66cf 0abe 52d7 70bd b893 413e
00000240: 420f 183c e517 e3bd 3099 d73c 1376 613e
00000250: 48c9 183d ce2a 5a3d 6de3 da3c e324 343c
00000260: 0964 6bbd 0169 91bc 3191 023c 25bf e3bd
00000270: c586 8abb 21d0 723c 0635 a6bc 4e5c f13c
00000280: 2ec7 aabb 61cf 073d d419 263e e184 b1bc
00000290: 3764 d93c 0187 7abc a1ee 59be f55f ff3d
000002a0: 56a5 92bd 47d1 b1bc cb40 73be 490a 2ebe
000002b0: 3f3f 783c 8957 3bbe 71e5 193c 25cb 19ba
000002c0: c01d fa3c 6950 a43c ab24 013d 7498 523d
000002d0: f5fa 78bb e35b b6bc 3013 563c bb29 57bc
000002e0: 77af 42bc 848f 2fbd 3032 e33d 5fb7 ff3a
000002f0: 7474 4c3c f502 23bd 6895 29bd 1f63 ce3d
00000300: bee1 1d3d 121a 13bd 421f ba3b 702e 3c3c
00000310: fe3e dabd 4011 073e 6d99 153b 2a26 18bb
00000320: 5cbd 493b 0881 2cbc a086 01b9 b6f8 ad3b
00000330: 943e 1cbd 9465 9cbd 7514 453c f223 a8bc
00000340: 1b97 9bbb 297b 3abe 83e9 efbb 32c9 193d
00000350: 8445 ad3d ac54 c73d 230f 64bc 959f e63b
00000360: ba72 a1bc abf1 e63b cc24 25bb 1b0d 0bbe
00000370: ad9c 88bb 3ad3 4bba 3920 93bb 2930 9d3b
00000380: 39de 9fbc 5077 ba3b 2781 4f3d 1ff8 fc3c
00000390: 0ddb 7d3b 342e 95bb b067 42be ec9e aa3d
000003a0: 3325 c8bc b4a7 98bc c7a4 c0bc 1606 793e
000003b0: 61d5 cabd 3c97 95bd 58fb 2c3e 7563 853b
000003c0: 25d5 d53d 2d8b e73c 87a7 ac3b b963 7a3b
000003d0: 37a3 62bb 5c15 da3b 79e1 d83b 631a 7ebd
000003e0: 52e0 3fbb a235 903a 3b1b eeba dd7b a53a
000003f0: cbf2 c7bb 4d56 88bb c4cc 4c3c 237c 28bb
-0.033997007 0.0016196211 -0.008076121 -0.004650285 -0.23485398 -0.17772272 0.011028246 -0.004182375
-9.426489e-05 0.0045745093 -0.0023811192 0.030045414 0.043874063 -0.23995097 -0.0155938715 -0.20295775
-0.01045268 0.014088955 -0.049456693 -0.22848393 -0.1913618 -0.016351119 0.038589694 0.0027447778
0.004398162 -0.1551978 0.0095979255 0.09164868 -0.0050578397 0.008996149 0.0002460816 0.09865463
0.008526987 0.024716448 0.049075916 -0.030298973 -0.00043868524 0.005209503 0.20232274 0.09649908
0.016923012 0.1842702 0.10155087 -0.17991099 0.091292486 0.10051776 0.1356472 -0.00059916015
-0.06462793 -0.008127461 -0.13021562 -0.037002016 -0.052435663 -0.009406138 0.018759241 -0.14648728
0.0030198758 0.14528936 0.11530594 -0.0052595288 -0.12713039 0.05604122 0.025083855 0.21238776
-0.09559822 -0.03331571 0.0062070508 0.028240511 0.031203086 -0.051915538 -0.03414488 -0.016007628
0.008637177 -0.01445414 -0.0018412748 0.22099224 -0.054974858 0.0031705536 -0.013613107 -0.016262148
0.020178482 -0.11744809 0.028101906 0.13691844 -0.20026785 -0.0071786796 -0.009551075 -0.01567717
0.016494615 0.12244225 0.013901752 -0.25186083 -0.0074662426 -0.015332567 -0.0074313004 -0.010108028
0.018233202 -0.016017873 -0.0381302 -0.009735276 -0.012267514 0.01957626 -0.071174875 -0.09977185
-0.0013051903 0.042489123 0.011271029 0.019064352 -0.10569196 -0.10962463 -0.25589824 -0.004279216
0.051715307 -0.059435286 -0.0098127285 0.07333505 0.018141882 0.0040389225 0.019945502 0.18953064
-0.0038463965 -0.05614772 -0.027536321 0.007393195 0.09935785 0.029087758 -0.01967112 -0.13512874
-0.12857808 -0.090566 -0.0003017459 0.013685507 -0.0065377164 0.04416541 -0.019932283 -0.0062144697
0.0015991164 -0.005212744 0.019607 -0.0066201473 -0.012389119 -0.13555679 -0.058799095 0.18904006
0.0092809815 -0.11088542 0.026318163 0.22017698 0.03730133 0.053263478 0.026719773 0.010995123
-0.057468448 -0.017750265 0.007969187 -0.11120442 -0.0042274916 0.01482013 -0.020288955 0.02946296
-0.0052117324 0.033156756 0.1622079 -0.021669807 0.026537044 -0.0152909765 -0.21282436 0.12469474
-0.071604416 -0.021706237 -0.23755185 -0.16996111 0.015151798 -0.18295111 0.009393082 -0.0005866758
0.030531764 0.020057874 0.03152911 0.051414922 -0.003799138 -0.022260612 0.013066098 -0.013132508
-0.011882654 -0.042861477 0.11093557 0.0019509605 0.012478936 -0.039797742 -0.04140225 0.100774996
0.038545363 -0.035913534 0.0056799958 0.011485681 -0.10656546 0.13190174 0.0022827045 -0.0023216107
0.0030783033 -0.01052881 -0.0001235255 0.0053091897 -0.038145617 -0.07636562 0.012028803 -0.020524953
-0.004748238 -0.18211044 -0.007321538 0.03754539 0.08460525 0.09732947 -0.0139196245 0.0070380666
-0.019708026 0.007047852 -0.0025198935 -0.13579218 -0.004169068 -0.00077753107 -0.004489925 0.004797001
-0.019515144 0.0056904927 0.05066028 0.030880032 0.00387353 -0.004552627 -0.18984866 0.08331093
-0.0244318 -0.018634655 -0.023516072 0.24318728 -0.0990398 -0.07304236 0.16892755 0.004070694
0.10441045 0.028264606 0.0052689943 0.0038206412 -0.0034582147 0.0066553783 0.0066186753 -0.062036883
-0.0029277992 0.0011002312 -0.0018166074 0.0012625415 -0.006101941 -0.0041606785 0.012499992 -0.0025708757

arith.constant1 f4 [64, 128]
00000000: d3aa 8fbd 1b44 b33d 251e e43c f827 80bb
00000010: b8bc d93c 6416 4dbd 83ff 7b3e c881 c6bd
00000020: 8353 8c3c bd7c ae3c a59d aebc bd5b 79bd
00000030: fa6d f53d 1866 58bd aef9 e8bc 9b7b f9bc
00000040: d287 edbd c341 243e b3ca 343e 1bf9 02bd
00000050: a564 74bd 27c2 bcbd 7551 6c3d 7f27 0e3e
00000060: 4142 d6bc 0863 e8bc 0331 5b3d e7b6 fdbd
00000070: acf9 0c3d 9691 a93c f114 243c 15bf fc3d
00000080: 8b76 813d de2d 85bd 8534 2a3d 7785 fb3d
00000090: e6e5 863e 7aba 6abc 4c26 e63d 9b85 eaba
000000a0: 6d6a 97be b591 10be b62e 9abc 69a1 1a3d
000000b0: 4b97 3c3d 915e 0abe 51a8 fe3d 25f9 8e3d
000000c0: 53ce 9ebd bc8a 45bb 5025 28bd a15d c63d
000000d0: 1593 29be 5683 2fba af4c 05bd 0cb3 353d
000000e0: d4bc d5bd f279 1d3d d410 a1bb 0047 a0bd
000000f0: 4fb0 24bc 0af2 b53d 8157 9fbd 5c30 51bc
00000100: 13c4 fabd 8de7 8bbd 083a 083d d824 fd3d
00000110: 9bb0 6a3d b2eb 22be 5588 a9bd 9e09 ec3d
00000120: 6370 9dbd 1297 933e 37c1 30bd be82 153d
00000130: 71cb 5b3c 02aa 39be 0472 a83d 16a3 19be
00000140: 06d0 11be 6af1 d33c 5ff4 d13c 8b4b 9dbd
00000150: b18d 963d 8e50 523e 259c f9bc 6348 1cbd
00000160: 8cec 173e 15d7 1ebd 2c11 273d cf46 063e
00000170: 3a33 e33b 92f0 5b3b e427 3bbd 6f10 933c
00000180: 4f62 6abd 2cd1 83bd 43e3 063e e9a5 c73d
00000190: 20a9 44bd 0bb0 90bd 6761 8dbd 14b9 803c
000001a0: 6700 6c3d eec8 4cbc 9213 d03d 33ba c13c
000001b0: a6b0 04be 4cd4 a23d 3eae 1ebb 7da6 423c
000001c0: 2221 e63d bd53 abbe 0f03 7f3b 34c9 af3e
000001d0: 7eb1 333b 09f9 8b3c 90a4 903d 4bd1 3fbd
000001e0: daa6 8fbd aba5 c13c 51b6 873d 04cc be3d
000001f0: c12f b6bd 387d b83d 3069 cc3d 4b13 f93d
00000200: 13d8 1f3e ad16 0cbd ba8e e13d 9ffe d8bc
00000210: 4957 aa3e 440d f73d a80a 29bf e2e0 4cbe
00000220: 549e 98ba 7b4f be3c 9e96 00bd 2429 6fbe
00000230: e471 32be 6ff9 463e 2a01 44bd 3e22 1dbc
00000240: eeb4 4cbe 9d75 babe 1bb2 473c c9fb 9c3e
00000250: 9e25 b6bd e8f2 b8bd d70a ec3c f425 0d3d
00000260: cb23 a83d 1193 9cbe b972 853c f33e be3c
00000270: 9617 30bd 643a 8abd ef24 1ebe 71f6 543e
00000280: 30f2 073e ce63 a8bd 56c2 453e 5401 e0bc
00000290: 25b1 8bbd c0f0 37be 0483 aebd 76d8 09bd
000002a0: ccdb 883e 1383 49be ea17 0d3d c94e 2bbd
000002b0: 561f 16be aeee 5a3d 1307 27be 0772 09bd
000002c0: fca9 073e 8626 26be ea1f 19bd 332c 93bd
000002d0: e593 93be 5d1d 53bd 9a1d 273e 45a9 b6bb
000002e0: c1f1 e3be e0ef 3bbe 3f4b 9e3e 0142 183d
000002f0: 5fc7 a4bd 2362 31bc 7a03 c73d de77 8e3d
00000300: f129 1b3e b769 7bbe 2815 c53a 5172 9bbe
00000310: 9f87 30bd f2c4 4fbd efa0 98ba d907 963c
00000320: 6cde 753e 6a25 f13d 7a45 22bd 96fe 103e
00000330: 5d2d 9ebd 4e07 77be 492e a03e 2bc1 27be
00000340: 1eda 493d fd2d a1bd 294b 85bd e7bf 43be
00000350: f22d 163d 187b 83be 15c6 cebd c134 45be
00000360: f00c 6f3d cfca b7bd 2f47 183e e3a6 f83d
00000370: 95a4 78be bcf6 e1bd bcff bd3c b85e d1bd
00000380: 3196 6a3e 125a 84bc 31dd 363e 3353 d9bd
00000390: ea30 70be c588 433e 62b4 83be 0c76 1c3e
000003a0: 40a5 573e daa7 90be f7c3 513d e5ff 453d
000003b0: e71f 82be 67ae be3d 57ee 013d 2158 d6bd
000003c0: 7040 77be 475a 643d e782 9a3c 2fd6 53bb
000003d0: 45e6 cd3d 0ba8 ddbc 3b25 8cbc 9d4f 3ebe
000003e0: 874f 9dbd 36ce 9abd e7ef 89be afe6 323e
000003f0: 6aa1 193d d107 89bd 29fa 9e3e 5a05 28be
-0.07015004 0.087532245 0.027846405 -0.0039110146 0.026579246 -0.05007018 0.24609189 -0.096927226
0.017129665 0.021299714 -0.021315405 -0.060878504 0.11983867 -0.05283174 -0.028439369 -0.030454447
-0.11598171 0.16040711 0.17655449 -0.031975847 -0.059666295 -0.09216719 0.05769487 0.13882254
-0.02615464 -0.028367534 0.053513538 -0.123884015 0.034417793 0.020699304 0.010014758 0.123411335
0.063214384 -0.06502889 0.041553993 0.12281316 0.26347274 -0.014326686 0.11237773 -0.0017892601
-0.29573384 -0.14118083 -0.018821102 0.03775159 0.04604272 -0.13512637 0.124344476 0.06981114
-0.07754197 -0.0030142507 -0.04105121 0.09685827 -0.16560014 -0.0006695291 -0.032543834 0.044360206
-0.10436407 0.038446374 -0.004915336 -0.07826042 -0.010051801 0.08884056 -0.07780362 -0.012767877
-0.122444294 -0.06831274 0.033258468 0.12360543 0.05729733 -0.15910223 -0.082779564 0.11525272
-0.07687452 0.28826195 -0.043153014 0.03650164 0.013415203 -0.18131259 0.08224872 -0.15003619
-0.14239511 0.025871951 0.02562922 -0.07680424 0.07351244 0.20538542 -0.030469963 -0.03815497
0.14836329 -0.038779337 0.04078786 0.13112949 0.006933597 0.003356014 -0.04569234 0.017952172
-0.05722266 -0.06436381 0.13172631 0.09748442 -0.048012853 -0.070648275 -0.06903344 0.015713252
0.05761757 -0.012499077 0.10159983 0.023648357 -0.12958011 0.07950649 -0.0024212743 0.011880514
0.11236788 -0.33462325 0.0038911735 0.34333193 0.0027419026 0.017086523 0.07062638 -0.046830457
-0.07014246 0.023638567 0.06626571 0.09316257 -0.08895827 0.090082586 0.099810004 0.12161883
0.1560977 -0.034201313 0.11013551 -0.0264886 0.33269718 0.12063077 -0.66031885 -0.20007661
-0.0011643865 0.023231259 -0.03139364 -0.23355538 -0.17426258 0.19431089 -0.047852673 -0.0095906835
-0.19990894 -0.36417857 0.01218846 0.30660847 -0.08893894 -0.09030706 0.028813763 0.034460023
0.08209952 -0.30580953 0.016290056 0.023223376 -0.042991243 -0.067494184 -0.15443777 0.20797135
0.13275981 -0.08222161 0.19312415 -0.027344383 -0.06820897 -0.17962933 -0.08521083 -0.0336537
0.26730192 -0.19678907 0.034446634 -0.041823182 -0.14660391 0.05345028 -0.16311292 -0.03355601
0.13248438 -0.16225633 -0.03738395 -0.07186165 -0.28823772 -0.051541675 0.16319886 -0.0055743777
-0.4452038 -0.18353224 0.30916783 0.03717232 -0.080458395 -0.01082662 0.0971746 0.069564566
0.15152718 -0.24552046 0.0015036212 -0.30360654 -0.04309809 -0.05072493 -0.0011644642 0.018314289
0.24010628 0.11774714 -0.03961704 0.14159617 -0.07723496 -0.2412388 0.31285313 -0.16382281
0.04928028 -0.078701 -0.06508476 -0.19116174 0.03666491 -0.2567985 -0.10096375 -0.19258405
0.058361948 -0.089742295 0.14870904 0.12141206 -0.24281533 -0.11033389 0.023193233 -0.10223144
0.22908856 -0.01615623 0.17857815 -0.10611572 -0.23456159 0.19095142 -0.2572356 0.15279406
0.21059132 -0.2825306 0.051212277 0.048339743 -0.25414965 0.09310608 0.03172144 -0.10466028
-0.24145675 0.055750158 0.018861247 -0.0032323708 0.10053686 -0.027057668 -0.017107597 -0.18585058
-0.07681184 -0.07558863 -0.26940843 0.17470811 0.037507452 -0.06690944 0.31050232 -0.16408291

arith.constant2 f4 [9]
00000000: 832b 7340 3801 d73f 3401 643e 1200 c33e
00000010: 0916 59bf 6c3e 6d3f cd62 08bf 27a8 183d
00000020: 451e 2f3f
3.7995307 1.6797247 0.22266084 0.3808599 -0.8479925 0.92673373 -0.5327576 0.037269738
0.6840556

sequential_1/dense_1_2/BiasAdd/ReadVariableOp f4 [64]
00000000: cea8 d23e 795a e9be b267 b43e 2e00 863e
00000010: b430 a7bd 52cc 69bd ce42 53be de78 f7be
00000020: e29b 03bf f49b 253e d33f 713f 4b23 a43f
00000030: fdd1 fdbd db43 eabd edef c8bd 7172 0a3e
00000040: 80ce 85be 2d1d 88bd f208 08be 48ef 9bbd
00000050: c868 0dbe 8a81 dabe 91e6 0d3f 57ba c23e
00000060: 3f49 843e 31c2 84bd d4e9 51be 8b04 a2bd
00000070: 44cd 07bf 8b3d 6f3e a657 8a3e 21c0 623f
00000080: 09ee e73e f519 093f b08f aabd 0cbc d0bd
00000090: ee16 d53e 73d9 963e d4dc 91bd 53fc d8bd
000000a0: e1eb 47be bbe9 0a3f 93d6 8bbd 6927 9bbc
000000b0: 37b7 83bd 4ef6 b7bd 3772 aebd 88ce ef3e
000000c0: 2bc0 a9bd 06fc d83e fda3 cb3d e825 b1be
000000d0: 95d7 483d b04d f73e 94ee 8bbe a8d4 b1bd
000000e0: 2402 4f3d 67e1 aa3d e99b 333f 7aac 933e
000000f0: 4335 053f 4637 793f b209 363f c135 9ebd
0.41144413 -0.45576838 0.35235363 0.26172012 -0.08163586 -0.05707962 -0.20630953 -0.48334402
-0.51409733 0.16172773 0.94238013 1.282327 -0.12393568 -0.11438724 -0.09811387 0.13520218
-0.2613411 -0.0664619 -0.13284662 -0.07613999 -0.13809502 -0.42676955 0.5542994 0.3803279
0.25837132 -0.064823516 -0.20499355 -0.07911023 -0.53047585 0.2336332 0.27019995 0.88574415
0.45298794 0.5355523 -0.083281875 -0.10192117 0.41619056 0.29462776 -0.07122198 -0.10595002
-0.19523574 0.54262894 -0.06828036 -0.01893969 -0.0643143 -0.08982526 -0.085178785 0.46837258
-0.08288606 0.4237978 0.09943388 -0.34599233 0.04903372 0.48301458 -0.27330458 -0.08683139
0.05053915 0.08343773 0.70159775 0.28842527 0.52034396 0.97349966 0.71108544 -0.077250965

sequential_1/dense_1/BiasAdd/ReadVariableOp f4 [128]
00000000: 8759 293d b3e9 6d3d 9421 ccbd f10b d2bd
00000010: 1ea1 cd3d 1851 873e a007 a13d b774 13be
00000020: 0e5b dc3e f670 4a3e c3c2 403e 7b03 35be
00000030: 298f d73e a9c6 aa3e 717f 2d3d 71ac 0c3e
00000040: f6dd c13e 37ae 643a 4987 9a3e 9c82 be3d
00000050: 0f84 d2bc 1d94 d63d 1c23 283d d85c fc3e
00000060: de0c 813c ad70 173e b7d9 5f3e daa0 41bd
00000070: 2076 30be 7083 e53a 695f 0fbd af0c 68be
00000080: 9b11 983e 98bd 8d3e 198e c93e e861 3cbd
00000090: aa15 963d fb4c 893e 412d 423e f5ee 5f3e
000000a0: f331 213e 9fd5 8b3e 746d cabd 547d a43e
000000b0: 24b4 62bd f828 70be b76d 0d3e 5b6d 873e
000000c0: 6ba9 953e 398d 053d 8310 c23d dc54 563f
000000d0: c81c 6a3e 59a9 d13d 4595 98bd e9e3 583e
000000e0: ce4c cc3e 6bfc a23e b79d 2d3f 7a0b 96bd
000000f0: f66e 74be 409b 1e3e 01e2 443e ac30 43bd
00000100: abd0 8d3d 4848 9fbe 02a9 a93e d080 88bc
00000110: 43e2 5bbd f386 eebc 6efd 31bd dd62 733e
00000120: 34b5 903e d5fb 263e d99a f83d 8803 76bc
00000130: 0590 74be 69d4 26be 954b c4bd b57e 213e
00000140: c682 d43a fd74 7f3e 8227 8d3e 882a a93e
00000150: e6d4 28be 03a0 963d 6bcf f6ba 189d cb3d
00000160: 2be4 8f3e f8b5 3b3d d31d aa3e 30bb 09bd
00000170: cb80 883e 1376 113e 5e88 70be b711 9ebd
00000180: 639b 283e 9da3 1d3e 05a7 c23e 8b27 953d
00000190: 389f 5abd cd9a 2e3e b7c9 60bc c339 d13e
000001a0: 9c3a 963b 8f63 60bd 3008 a23b b1be 1ebd
000001b0: 9a8b 703d 0463 b13e fd49 58bc b216 57bd
000001c0: d047 a93d 86d1 61bc ecec 5e3a e4cd 113f
000001d0: 494a eb3e deb4 0ebe 897d be3e 1f51 543c
000001e0: 4de1 ddbd 7604 88be e180 4a3d 4fbf a53e
000001f0: cd6e 4c3e 1fb4 fabd 8692 643e 3489 54bd
0.041345146 0.0580842 -0.09967342 -0.10256184 0.10040496 0.26429057 0.078627825 -0.14399992
0.4303822 0.19769654 0.18824296 -0.17677109 0.4210141 0.3335469 0.042357866 0.13737656
0.37864655 0.000872347 0.3018134 0.093022555 -0.025697736 0.10477469 0.041049108 0.49289584
0.015753206 0.14789076 0.21860395 -0.04727254 -0.17232561 0.0017510485 -0.0350031 -0.22661088
0.29700932 0.2768371 0.39366224 -0.04599181 0.07328351 0.26816544 0.18962575 0.21868499
0.1574171 0.27311417 -0.09884158 0.32126868 -0.055347577 -0.23453128 0.13811384 0.2645062
0.29230818 0.032605384 0.094758056 0.83723235 0.22862542 0.102373786 -0.07450346 0.21180691
0.39902347 0.31833205 0.6781878 -0.07326408 -0.23870453 0.1548891 0.19226839 -0.04765384
0.06924566 -0.31109834 0.33136755 -0.016662985 -0.053682577 -0.029117083 -0.04345458 0.23768182
0.28263247 0.16307004 0.1213891 -0.01501549 -0.23883064 -0.16291966 -0.09584729 0.15770991
0.001621329 0.24946971 0.27569205 0.3304026 -0.16487464 0.073547386 -0.0018830126 0.09942073
0.28103766 0.045827836 0.3322588 -0.03362578 0.2666076 0.14205198 -0.2348952 -0.077182226
0.16465525 0.15394445 0.3801805 0.07282933 -0.0533745 0.1705124 -0.013719968 0.4086438
0.0045846235 -0.054782446 0.0049448237 -0.038756076 0.058726884 0.34645855 -0.013201234 -0.05251188
0.0826565 -0.013782864 0.0008503932 0.5695479 0.45955113 -0.13936183 0.3720515 0.012958794
-0.10833988 -0.26565903 0.049439315 0.3237252 0.19964142 -0.122413866 0.2232152 -0.05188866

sequential_1/dense_1/MatMul f4 [128, 216]
00000000: fc12 16be 96a4 123e d790 dabd 09d8 3b3d
00000010: ba06 e9bc a5ce 1ebd 9c52 2fbe 88d7 053d
00000020: 271c 803d 8adc 3c3d a7fc 6ebc 0b9b 9d3b
00000030: 70ee 793e 9af8 48be ff71 0cbe 5608 703d
00000040: d399 fc3d 5a56 afbd dc00 8e3c e242 2ebe
00000050: 78ee 293d ea55 913e ef65 26bd d955 103d
00000060: 807b 223e 1a54 9f3c 8eba f0bd 1b79 2d3c
00000070: d9e6 4cbe 4245 80bd 27d1 7d3e 0466 f33d
00000080: 58f3 5e3e 1166 13be b13a 223e 03de 35be
00000090: ca2f b03d 8d97 4cbd 90d2 20bd 68dd 783d
000000a0: 515b 573e 745c c73d 3409 cd3b 9678 5a3b
000000b0: 7e90 11be d8d3 063d dacf 8f3e f53e 18bd
000000c0: 9e42 90bd b469 d33d 642c 403e 00f5 17bc
000000d0: 1b82 333d a140 43bd 09f9 c7bc 5845 003e
000000e0: 5e0d 543c 2265 c5bd f5f5 083d ccd2 873b
000000f0: 401a 7cbd de04 713e 7fe7 dd3d 8b53 f03c
00000100: 7dfd de3e 441e 85bd 1948 2cbd 1f09 fcbd
00000110: 8996 d93d b2cb 88bd a9f5 44bd ca5b 20be
00000120: aea5 e0bd 2174 f73e 6d2a 36bd 84a0 69bc
00000130: 4cc3 8fbd 604c 1ebe 3978 13be 21d0 fa3d
00000140: 0144 f1bc 0a18 f7bd bfcf bf3e cde1 9ebd
00000150: 1d08 27be 537d debd 61e7 d0bb 2adc babd
00000160: e0ea eb3d 9a25 f63c b180 b33c 97d1 083f
00000170: 1db5 1d3e ad6e a7bd 3417 5fbc d704 2ebe
00000180: 14c4 57be 9ffa cdbd 0d42 343d 5b51 c5bd
00000190: a6b0 da3e 3194 a5bd 7de3 ff3c 92f9 7bbe
000001a0: 33d1 a1be d796 3cbe 88de dd3c 61df d7bd
000001b0: 260d 0dbe 4d5f 573e 4a25 bfbc 493d 97bb
000001c0: d8ec 9abe 2c3d c3bd 3cd5 14be 8b7c 88bd
000001d0: e8b2 9e3d 6775 25be 6d70 8e3e e759 85bd
000001e0: 64fd 353e 8718 e6bd 6c60 5ebd 0cf0 53be
000001f0: ee00 ec3d 7cc9 c2bc 6391 58bd 406f d9bd
00000200: 7bb3 193e 41b7 853d 3c72 d7bd 14c6 313d
00000210: a01a 55be b700 acbd f93e 9f3d 659d f3bd
00000220: 4b41 693b 264a b73d 67e3 c1bc 992f 3dbd
00000230: 7bc0 6b3d 42c2 80be 081f 9fbd 50cc 90bd
00000240: 6b2a c0bd 37f6 3db9 0711 983e e976 47bd
00000250: a63b c2bd 5647 21bd d190 2dbe aa03 5e3e
00000260: f645 dbbc 3314 3c3c 1fb1 3fba 7e69 933e
00000270: 4695 c33d 41c9 af3d 3a51 e43d 223b acbd
00000280: b52c c73d cccb 31be 6689 31bd d0b4 b43d
00000290: ac41 ebbd 6715 5ebc a302 9a3d 407e ed3d
000002a0: 59b8 01bd 9b8e 083e 9341 8fbe 92bf 40bc
000002b0: bb84 783e fe6e 85bd aa28 823e 1398 6f3c
000002c0: f597 febd a75e b53c e85c 323e 8bbb 4dbe
000002d0: 2674 52bd 76cc 8f3e 30e6 f43d 7110 663d
000002e0: 6bc4 71bd 6381 8fbd 50ea 05be ae06 163e
000002f0: ada9 9fbd 4b56 a8bd 2b83 c33e b8c9 d0bd
00000300: 3991 7c3e 4c28 96be eb98 99be ced8 39be
00000310: cf01 203e 498c 6abe 0638 ba3b 17cd 4d3e
00000320: ba0d 27bc 7cab 383c dec4 67be d315 acbd
00000330: ce80 2dbb fb51 5e3e 700b ecbd 1da9 e6bd
00000340: de9c 173e 7290 b03e 10b6 ad3e 0938 47be
00000350: b2cd 83bd 350a 9abd 483d 913d 62ae 85be
00000360: 79bf 73be 84c8 cbbe 0899 43bf 920f b43e
00000370: 240d 013e b0d9 803d 0c52 bfbe 3ff3 0fbe
00000380: 7cd0 133e bbc8 52be 0bb4 4dbd d59c e4be
00000390: c005 ca3d 3d95 113e 0d06 ca3d 199b 3ebe
000003a0: 54d1 37be d9a4 a0bd 8769 52be f75a 473c
000003b0: 3aa8 8ebe 8de9 703d b0a4 1a3e c946 d3ba
000003c0: 326a b9be 7db7 b7be 17a4 1cbe f567 95be
000003d0: c3b8 d53e 0fe7 eb3d d2bc 93be bf01 0b3d
000003e0: 23ef 79bd 996b e2be 281c d1be 7181 bfbe
000003f0: 1088 45be 0292 f53e f3b0 113e aeb1 95be
-0.1465568 0.14320597 -0.10672157 0.045860324 -0.02844559 -0.03877129 -0.17121357 0.03267625
0.0625537 0.04610876 -0.014586604 0.0048097423 0.24407363 -0.19626084 -0.13715361 0.0586017
0.12334027 -0.08561392 0.017334394 -0.17017701 0.041487187 0.2838586 -0.040624555 0.03523812
0.15867424 0.019449282 -0.117543325 0.010587956 -0.20009936 -0.0626321 0.24786817 0.11884692
0.21772516 -0.14394404 0.15842701 -0.17760472 0.08602865 -0.049949218 -0.039263308 0.060758024
0.21030928 0.09734431 0.0062572006 0.0033336035 -0.14215276 0.032916874 0.28088266 -0.037169416
-0.07043956 0.10322896 0.18766934 -0.009274721 0.04382525 -0.047669057 -0.024410741 0.12526453
0.01294264 -0.0963843 0.033437688 0.004145002 -0.06154847 0.23537013 0.1083517 0.029336711
0.4355277 -0.06499913 -0.042060945 -0.12306427 0.106244154 -0.06679477 -0.048085842 -0.15660015
-0.10969101 0.48330787 -0.044474054 -0.014259461 -0.07019672 -0.15458822 -0.1440133 0.12246729
-0.029451372 -0.12065132 0.37463185 -0.07757912 -0.16311689 -0.108637474 -0.0063752388 -0.09124024
0.11519408 0.030047227 0.02191195 0.5344481 0.1540112 -0.081754066 -0.013616372 -0.16994034
-0.21070892 -0.10057568 0.044008303 -0.09634658 0.42712897 -0.08084906 0.031236405 -0.24606922
-0.3160492 -0.18416916 0.02708365 -0.10540653 -0.13774547 0.21032448 -0.02333321 -0.00461546
-0.30258822 -0.09533152 -0.14534467 -0.0666438 0.077489674 -0.16158067 0.2782015 -0.06511288
0.17772442 -0.11235147 -0.054291174 -0.2069704 0.11523615 -0.023777716 -0.052873027 -0.106169224
0.15009873 0.065290935 -0.10519835 0.043401793 -0.20810938 -0.08398574 0.07775683 -0.11895255
0.0035591896 0.089496896 -0.023668004 -0.04618797 0.05755661 -0.25148207 -0.077695906 -0.070702195
-0.093830906 -0.00018116167 0.2970049 -0.048697386 -0.09484033 -0.039374672 -0.16949774 0.21681085
-0.026766758 0.011479425 -0.0007312465 0.28791422 0.09549956 0.08583308 0.11148305 -0.08409716
0.09725324 -0.17362899 -0.043343924 0.0882355 -0.11487135 -0.013554907 0.07520034 0.11596346
-0.03166995 0.1333565 -0.27979717 -0.011764424 0.24269383 -0.06515311 0.2542165 0.01462366
-0.12431327 0.02213986 0.17418253 -0.20091073 -0.0513803 0.2808568 0.11957967 0.056168023
-0.05902521 -0.070071004 -0.13077664 0.14650986 -0.07796035 -0.08219584 0.3818601 -0.10194725
0.24664773 -0.2932762 -0.2999948 -0.1814911 0.1562569 -0.22905077 0.005682948 0.20097767
-0.010196144 0.011271354 -0.22633693 -0.084026 -0.0026474479 0.2171096 -0.11525619 -0.112627245
0.14805934 0.34485203 0.33927965 -0.1945497 -0.06435718 -0.07521478 0.070917666 -0.26109606
-0.2380351 -0.3980142 -0.7640538 0.3516813 0.12602669 0.062915206 -0.37367284 -0.14057635
0.14434999 -0.20584385 -0.05022053 -0.44650903 0.09864378 0.14217086 0.09864435 -0.18613853
-0.17950946 -0.07843942 -0.20548068 0.012167684 -0.27862722 0.05881648 0.15101886 -0.0016119118
-0.36213833 -0.35882178 -0.1529697 -0.29180875 0.41742525 0.1151868 -0.28854996 0.033937212
-0.061019074 -0.44222715 -0.40841794 -0.37403443 -0.19290185 0.47962958 0.14227657 -0.2923712
